option_pricing_nn.pth (torch, 11948 bytes, 5 tensors)

fc1.weight f4 [64, 2]
-0.064590245 0.8272822 -0.20758805 -0.298201 0.7668074 -0.04570274 -0.83923334 0.5386491
-0.41570106 0.83245444 0.7504165 -0.031642314 -0.70436364 0.029653003 0.021998823 -0.29079622
-0.3589324 -0.43466848 0.94058824 -0.12922907 -0.97865933 0.52831984 -0.36099094 -0.55537516
0.81439596 -0.24192712 -0.45100385 0.16944374 -1.830726 -0.9719944 -0.63202435 -0.6907521
-0.11469954 -0.23839253 -0.78008467 0.28546292 0.5204329 0.035917927 0.81950176 -0.22699767
-0.3086388 -0.2275809 0.86047953 -0.45726836 0.02230568 0.47604814 0.09928873 0.1364086
-0.16821802 -0.027107418 -0.57808286 0.32590282 -0.6785129 -0.08713926 -0.5676755 0.6498376
-0.9065687 0.277217 0.07907732 0.24610291 0.88564503 0.08968064 0.7869318 0.19848529
-0.8186017 0.27630723 -0.6621713 -0.7135435 0.4088845 -0.2523475 -0.6082053 0.13377337
0.052969575 -0.33326095 0.09508485 0.4669826 -0.43539178 -0.2017386 -0.7351103 -0.45401224
-0.6734141 0.44326296 -0.9157571 0.5941033 -0.15804802 0.7134934 -0.7361665 0.41734684
0.7205998 -0.2679939 -0.2142401 -0.5489587 -0.8911927 0.25745597 -0.03616658 0.7048519
0.13205153 0.030427337 0.61158276 -0.4768887 -0.5624048 0.5218303 0.74775916 -0.008314239
-0.65781844 -0.034090307 0.06043043 0.0055385446 -0.9509829 0.72725385 -0.6912687 0.24827991
-0.47354564 0.17852284 -1.0152248 -0.20141608 -0.7241731 0.83773655 -0.008277227 0.33315757
0.6031992 -0.028494902 0.9395625 0.25996527 -0.5330194 0.42280692 0.79535526 -0.3643958
00000000: e447 84bd c4c8 533f f691 54be cdad 98be
00000010: 7d4d 443f cc32 3bbd ffd7 56bf e8e4 093f
00000020: c5d6 d4be bc1b 553f 4c1b 403f 5f9b 01bd
00000030: 2d51 34bf dbea f23c e036 b43c 3ee3 94be
00000040: fdc5 b7be de8c debe 64ca 703f a054 04be
00000050: 6b89 7abf f83f 073f ced3 b8be 112d 0ebf
00000060: 417c 503f bebb 77be fae9 e6be a982 2d3e
00000070: 3b55 eabf a0d4 78bf 59cc 21bf 21d5 30bf
00000080: 98e7 eabd 2c1d 74be a1b3 47bf 3228 923e
00000090: 173b 053f ad1e 133d deca 513f 1472 68be
000000a0: e805 9ebe f80a 69be 6348 5c3f 141f eabe
000000b0: 67ba b63c 95bc f33e e457 cb3d b2ae 0b3e
000000c0: 5841 2cbe 6010 debc 3dfd 13bf bcdc a63e
000000d0: 05b3 2dbf 1176 b2bd 2e53 11bf c25b 263f
000000e0: e314 68bf 63ef 8d3e 4af3 a13d 6702 7c3e
000000f0: a2b9 623f 7caa b73d 5d74 493f ba3f 4b3e
00000100: e28f 51bf 2478 8d3e 0f84 29bf c9aa 36bf
00000110: 4f59 d13e b133 81be 58b3 1bbf e3fb 083e
00000120: a0f6 583d 2ea1 aabe d9bb c23d 5818 ef3e
00000130: aceb debe 9094 4ebe 3030 3cbf 4b74 e8be
00000140: de64 2cbf 5df3 e23e 0f6f 6abf 2717 183f
00000150: 57d7 21be 81a7 363f 6875 3cbf 7cae d53e
00000160: 3a79 383f 7f36 89be c261 5bbe 8f88 0cbf
00000170: 3425 64bf 45d1 833e 6823 14bd 2d71 343f
00000180: 8438 073e c042 f93c b090 1c3f c12a f4be
00000190: c3f9 0fbf ac96 053f 256d 3f3f 7238 08bc
000001a0: ca66 28bf 47a2 0bbd e685 773d ae7c b53b
000001b0: 9e73 73bf 4f2d 3a3f fcf6 30bf 173d 7e3e
000001c0: 9374 f2be b1ce 363e e3f2 81bf 0440 4ebe
000001d0: 6963 39bf e775 563f 359d 07bc a193 aa3e
000001e0: 436b 1a3f 246e e9bc 2b87 703f 2b1a 853e
000001f0: f673 08bf 267a d83e 679c 4b3f 1692 babe

fc1.bias f4 [64]
0.20971309 -0.40479627 0.76642543 0.13487521 0.03292699 0.1983135 0.35553566 -0.5057485
0.7880725 0.23080963 0.48036897 -0.46112344 0.8089923 0.54461694 -0.7259292 0.44045788
-0.44805261 0.85437316 0.59340113 0.8322799 0.52137244 -0.13414651 0.57300866 0.6995795
-0.33101133 -0.2728215 0.36796188 -0.26599002 0.7070858 0.47030994 0.3019517 -0.13294683
-0.070085146 0.43825343 0.4641266 0.53343743 -0.7058046 -0.24677314 0.70415074 0.44358337
-0.30908117 -0.264566 0.47354025 0.60634834 0.7167315 -0.5183362 0.09511072 0.22923322
-0.5795283 0.6200395 -0.12698588 -0.3225746 0.6763505 -0.285145 0.16911381 0.68114483
0.37528443 0.65897983 0.5208041 0.7938196 0.7462124 -0.14165099 -0.24466047 0.054038573
00000000: 07bf 563e 7541 cfbe 7534 443f ba1c 0a3e
00000010: 74de 063d b212 4b3e c508 b63e bc78 01bf
00000020: 1fbf 493f 5c59 6c3e ecf2 f53e 5f18 ecbe
00000030: 1f1a 4f3f 046c 0b3f 7fd6 39bf b283 e13e
00000040: 2767 e5be 33b8 5a3f 23e9 173f 4c10 553f
00000050: aa78 053f b45d 09be b2b0 123f a417 333f
00000060: 517a a9be 42af 8bbe 8065 bc3e d82f 88be
00000070: 9303 353f 77cc f03e 6a99 9a3e 3723 08be
00000080: cd88 8fbd c162 e03e 00a2 ed3e 5b8f 083f
00000090: 9caf 34bf 19b2 7cbe 3943 343f 5c1d e33e
000000a0: e33f 9ebe 3275 87be de73 f23e a539 1b3f
000000b0: b77b 373f aeb1 04bf 69c9 c23d 1dbc 6a3e
000000c0: f75b 14bf e9ba 1e3f 9608 02be 7f28 a5be
000000d0: 4e25 2d3f 87fe 91be 2c2c 2d3e 825f 2e3f
000000e0: 4825 c03e e7b2 283f 6b53 053f c337 4b3f
000000f0: c707 3f3f f50c 11be 4688 7abe 8d57 5d3d

fc2.weight f4 [32, 64]
-0.069169216 0.12330887 0.1098376 -0.010458814 -0.03355676 -0.04375072 0.02374171 0.1224141
-0.22889099 0.12985867 -0.02436144 0.070222855 -0.042547334 -0.07474266 -0.10424231 -0.20663574
0.0397211 0.030185252 -0.040700745 -0.04088102 -0.08041239 -0.039455343 -0.06444846 -0.0117956735
-0.102793455 -0.022111053 -0.09126473 -0.07963463 -0.040649693 0.007095813 0.111555174 0.12473599
-0.0763878 -0.011365058 -0.02599165 -0.16815661 -0.10036224 -0.061047696 -0.07834242 -0.020612529
-0.10445165 -0.10933494 -0.12833281 -0.20144801 -0.16733032 0.04033363 -0.101938434 -0.0267317
0.116509646 -0.095913656 -0.16017054 0.050984725 -0.01447628 -0.10723356 -0.1323555 -0.013348399
0.03360881 -0.16200317 -0.052293353 -0.22146082 -0.014182366 -0.020318404 0.011914232 0.11171954
-0.13817658 0.09033273 -0.09363735 -0.07980371 -0.17625843 -0.06690626 -0.06477774 -0.083786815
-0.034111064 0.02465953 0.052866545 -0.10369216 -0.07437736 -0.12531403 -0.089810014 0.096634164
-0.079533994 -0.13665704 -0.061470255 0.11684446 -0.17691368 0.075869754 -0.071570024 -0.0013460527
-0.0034919083 -0.15524189 0.001246352 -0.053730376 -0.18003327 -0.0138455825 -0.12866817 -0.04310429
0.053725816 0.015192479 -0.08120854 -0.13573591 0.026663855 -0.12473635 -0.056675382 -0.16066785
0.0038279386 0.02133926 -0.009735638 -0.04052743 -3.0040741e-05 -0.09630431 -0.12561911 -0.030152572
-0.060975805 0.00405623 0.027277404 0.004793495 -0.014139446 -0.08227202 0.0028902146 0.002110754
-0.1836003 -0.074933894 -0.16752434 -0.14681388 -0.07259822 0.08466908 -0.059202924 0.048172727
0.32982114 -0.0775602 -0.7248831 0.37319094 0.31325564 -0.60470057 0.3326285 0.10367775
0.34234878 -0.47836453 0.40928334 -0.00371103 -0.5202469 0.38610882 1.1334096 0.34902903
0.11117096 0.2628552 -0.7076793 -0.22280927 0.25368878 -0.5051953 0.2761047 0.035542194
-0.079160646 0.31500345 0.38257942 0.16843659 0.37423038 -0.15794812 -0.5196887 -0.44609553
0.30022034 0.45101798 -0.097345725 0.29693916 -0.041970715 0.033002622 0.3181702 0.34502143
0.21940416 0.25416377 0.32918647 0.40791294 -0.61853623 -0.015053555 0.4394334 0.35628062
-0.016465321 -0.38548443 0.27959907 -0.2981375 0.42542413 -0.021007165 0.3655313 0.36242485
0.23309062 0.38612193 0.41866 0.2502574 -0.24055907 -0.24824937 0.25665605 -0.5190249
0.28119346 -0.059682027 -0.5002962 0.23784225 0.2674954 -0.34453538 0.3956516 -0.06877798
0.28020734 -0.32423565 0.44576198 0.06185554 -0.39315075 0.24910684 1.0945132 0.4526858
-0.09055346 0.19540195 -0.64822656 -0.27324957 0.2210871 -0.3806609 0.1488509 0.22291519
0.016815513 0.3589372 0.33069995 0.36459723 0.45003045 -0.081401475 -0.4398241 -0.20645258
0.4332792 0.4890767 -0.20942914 0.28049767 0.10301307 0.21563818 0.40776628 0.4105468
0.3873606 0.25316882 0.350423 0.23736659 -0.44028297 -0.080214635 0.27685583 0.35548633
-0.021161705 -0.41473517 0.19287159 -0.36686873 0.23311718 0.06499414 0.40036425 0.23265457
0.38426533 0.31037122 0.4282791 0.23249424 -0.28219947 -0.35051048 0.41262764 -0.5059989
00000000: 97a8 8dbd 5c89 fc3d 89f2 e03d 725b 2bbc
00000010: d072 09bd f433 33bd fa7d c23c 3eb4 fa3d
00000020: 6662 6abe acf9 043e a591 c7bc 00d1 8f3d
00000030: 1d46 2ebd ae12 99bd fe7c d5bd 5298 53be
00000040: 98b2 223d 1047 f73c d3b5 26bd db72 27bd
00000050: 40af a4bd ed9b 21bd 8efd 83bd a442 41bc
00000060: 6085 d2bd 3d22 b5bc 01e9 babd 7b17 a3bd
00000070: 4b80 26bd fe83 e83b 0a77 e43d 9575 ff3d
00000080: 3571 9cbd 8234 3abc 71ec d4bc 3f31 2cbe
00000090: b88a cdbd 260d 7abd fe71 a0bd 9bdb a8bc
000000a0: bfea d5bd ffea dfbd ad69 03be 6348 4ebe
000000b0: a458 2bbe e034 253d 19c5 d0bd 70fc dabc
000000c0: 9c9c ee3d 616e c4bd bf03 24be 5cd5 503d
000000d0: eb2d 6dbc 459d dbbd 3388 07be 3eb3 5abc
000000e0: 64a9 093d 29e4 25be 8e31 56bd a0c6 62be
000000f0: 285d 68bc c872 a6bc e933 433c 37cd e43d
00000100: 297e 0dbe 5e00 b93d f0c4 bfbd 2170 a3bd
00000110: 177d 34be 2606 89bd 31aa 84bd 6c98 abbd
00000120: 0bb8 0bbd c802 ca3c 978a 583d 8e5c d4bd
00000130: 2853 98bd 5252 00be 50ee b7bd 22e8 c53d
00000140: b8e2 a2bd d3ef 0bbe 3cc8 7bbd 264c ef3d
00000150: dc28 35be 9a61 9b3d 4e93 92bd 096e b0ba
00000160: 80d8 64bb bbf7 1ebe a25c a33a 6214 5cbd
00000170: a45a 38be 95d8 62bc 97c1 03be 208e 30bd
00000180: 9a0f 5c3d e0e9 783c aa50 a6bd 5bfe 0abe
00000190: 286e da3c c575 ffbd 7224 68bd 1d86 24be
000001a0: 27de 7a3b accf ae3c 3a82 1fbc 1700 26bd
000001b0: 0000 fcb7 323b c5bd 4ca2 00be 8702 f7bc
000001c0: c4c1 79bd 20ea 843b dd74 df3c c012 9d3b
000001d0: 23a9 67bc 3c7e a8bd c169 3d3b 9354 0a3b
000001e0: b801 3cbe f176 99bd 808b 2bbe 6156 16be
000001f0: 60ae 94bd fc66 ad3d c47e 72bd c450 453d
00000200: 51de a83e e2d7 9ebd f091 39bf e212 bf3e
00000210: 0b63 a03e a8cd 1abf 484e aa3e 0055 d43d
00000220: 5748 af3e 32ec f4be 968d d13e c034 73bb
00000230: e72e 05bf 0eb0 c53e 9113 913f efb3 b23e
00000240: 9aad e33d f594 863e 782a 35bf 1d28 64be
00000250: 7fe3 813e 7b54 01bf 985d 8d3e b194 113d
00000260: fa1e a2bd 2248 a13e 73e1 c33e a47a 2c3e
00000270: 209b bf3e 27bd 21be 520a 05bf a266 e4be
00000280: 7bb6 993e d4eb e63e 325d c7bd 6908 983e
00000290: 7ce9 2bbd c22d 073d 34e7 a23e a6a6 b03e
000002a0: 7cab 603e c121 823e 218b a83e f7d9 d03e
000002b0: 6458 1ebf 30a3 76bc 6afd e03e 6a6a b63e
000002c0: 48e2 86bc 375e c5be 9c27 8f3e 7aa5 98be
000002d0: 31d1 d93e 3817 acbc eb26 bb3e c08f b93e
000002e0: 4faf 6e3e c6b1 c53e 9b5a d63e bd21 803e
000002f0: 1e55 76be 1535 7ebe 6c68 833e d1de 04bf
00000300: 97f8 8f3e 2475 74bd 6913 00bf eb8c 733e
00000310: 28f5 883e f166 b0be d992 ca3e 78db 8cbd
00000320: 5677 8f3e 3702 a6be ea3a e43e 3c5c 7d3d
00000330: 0e4b c9be dd15 7f3e 0219 8c3f 6fc6 e73e
00000340: 1874 b9bd 7317 483e 2df2 25bf 5ee7 8bbe
00000350: a864 623e fce5 c2be 5f6c 183e e143 643e
00000360: b0c0 893c 9ec6 b73e 8151 a93e 7dac ba3e
00000370: 646a e63e d1b5 a6bd a030 e1be 4e68 53be
00000380: c5d6 dd3e 4368 fa3e 9874 56be 649d 8f3e
00000390: 84f8 d23d 41d0 5c3e bec6 d03e 3133 d23e
000003a0: 2154 c63e 589f 813e a56a b33e 3a10 733e
000003b0: c56c e1be 9247 a4bd 0cc0 8d3e 4e02 b63e
000003c0: 505b adbc 2b58 d4be 2180 453e 38d6 bbbe
000003d0: 45b6 6e3e a61b 853d 8bfc cc3e 003d 6e3e
000003e0: 6dbe c43e fae8 9e3e 6647 db3e f812 6e3e
000003f0: 737c 90be 1c76 b3be ee43 d33e 2589 01bf

fc2.bias f4 [32]
0.0030438295 0.062324755 0.22272915 0.22351162 0.32187682 0.25193888 0.04316674 -0.0026929374
-0.0862693 0.010462328 -0.1391985 0.023153853 -0.11939631 -0.15706204 0.0044528097 0.30672047
0.3831813 0.17183375 0.16829206 0.38516057 0.17518373 0.095510654 0.18783285 0.15142527
-0.015692597 -0.14342795 -0.10657772 0.025145214 -0.07806653 0.30625394 -0.12853725 -0.029158773
00000000: fc7a 473b 3e48 7f3d 1c13 643e 3be0 643e
00000010: 0acd a43e 22fe 803e 9ccf 303d fe7b 30bb
00000020: f5ad b0bd 2f6a 2b3c 0d8a 0ebe 26ad bd3c
00000030: 0d86 f4bd dfd4 20be e0e8 913b 770a 9d3e
00000040: 5730 c43e 30f5 2f3e c154 2c3e c433 c53e
00000050: 5d63 333e 179b c33d 4157 403e 3a0f 1b3e
00000060: c38d 80bc c7de 12be 6b45 dabd 56fd cd3c
00000070: 58e1 9fbd 51cd 9c3e 459f 03be 61de eebc

fc3.weight f4 [1, 32]
-0.081253126 -0.10036148 0.32528332 0.3377082 0.4124507 0.33789825 0.033533722 -0.022138448
-0.0788148 -0.053057905 -0.0271643 0.034538127 -0.02124204 -0.052041832 0.17393266 0.30956754
0.3236593 0.43037298 0.3365822 0.4239488 0.4620679 0.30588162 0.38147604 -0.33933643
0.01359064 -0.09924779 -0.03551781 -0.08730078 0.16887484 0.36291537 -0.010068176 -0.009851896
00000000: 0a68 a6bd 528a cdbd 898b a63e 17e8 ac3e
00000010: bd2c d33e 0001 ad3e a85a 093d b15b b5bc
00000020: a769 a1bd 3f53 59bd ab87 debc da77 0d3d
00000030: c903 aebc d129 55bd 671b 323e a37f 9e3e
00000040: acb6 a53e d959 dc3e 8154 ac3e d10f d93e
00000050: 2a94 ec3e 849c 9c3e d450 c33e 81bd adbe
00000060: 47ab 5e3c 6d42 cbbd 207b 11bd c0ca b2bd
00000070: 87ed 2c3e 0bd0 b93e fef4 24bc d969 21bc
